strike:yolo wade$ ../../darknet/darknet detector train pews.data yolov3-tiny-pews.cfg yolov3-tiny.conv.15
yolov3-tiny-pews
layer     filters    size              input                output
   0 conv     16  3 x 3 / 1   416 x 416 x   3   ->   416 x 416 x  16 0.150 BF
   1 max          2 x 2 / 2   416 x 416 x  16   ->   208 x 208 x  16 0.003 BF
   2 conv     32  3 x 3 / 1   208 x 208 x  16   ->   208 x 208 x  32 0.399 BF
   3 max          2 x 2 / 2   208 x 208 x  32   ->   104 x 104 x  32 0.001 BF
   4 conv     64  3 x 3 / 1   104 x 104 x  32   ->   104 x 104 x  64 0.399 BF
   5 max          2 x 2 / 2   104 x 104 x  64   ->    52 x  52 x  64 0.001 BF
   6 conv    128  3 x 3 / 1    52 x  52 x  64   ->    52 x  52 x 128 0.399 BF
   7 max          2 x 2 / 2    52 x  52 x 128   ->    26 x  26 x 128 0.000 BF
   8 conv    256  3 x 3 / 1    26 x  26 x 128   ->    26 x  26 x 256 0.399 BF
   9 max          2 x 2 / 2    26 x  26 x 256   ->    13 x  13 x 256 0.000 BF
  10 conv    512  3 x 3 / 1    13 x  13 x 256   ->    13 x  13 x 512 0.399 BF
  11 max          2 x 2 / 1    13 x  13 x 512   ->    13 x  13 x 512 0.000 BF
  12 conv   1024  3 x 3 / 1    13 x  13 x 512   ->    13 x  13 x1024 1.595 BF
  13 conv    256  1 x 1 / 1    13 x  13 x1024   ->    13 x  13 x 256 0.089 BF
  14 conv    512  3 x 3 / 1    13 x  13 x 256   ->    13 x  13 x 512 0.399 BF
  15 conv     51  1 x 1 / 1    13 x  13 x 512   ->    13 x  13 x  51 0.009 BF
  16 yolo
  17 route  13
  18 conv    128  1 x 1 / 1    13 x  13 x 256   ->    13 x  13 x 128 0.011 BF
  19 upsample            2x    13 x  13 x 128   ->    26 x  26 x 128
  20 route  19 8
  21 conv    256  3 x 3 / 1    26 x  26 x 384   ->    26 x  26 x 256 1.196 BF
  22 conv     51  1 x 1 / 1    26 x  26 x 256   ->    26 x  26 x  51 0.018 BF
  23 yolo
Total BFLOPS 5.465 
Loading weights from yolov3-tiny.conv.15...
 seen 64 
Done!
Learning Rate: 0.001, Momentum: 0.9, Decay: 0.0005
Resizing
608 x 608 
Loaded: 0.459732 seconds
Region 16 Avg IOU: 0.417880, Class: 0.540602, Obj: 0.500718, No Obj: 0.514730, .5R: 0.333333, .75R: 0.000000,  count: 9
Region 23 Avg IOU: 0.096274, Class: 0.430087, Obj: 0.407385, No Obj: 0.470261, .5R: 0.000000, .75R: 0.000000,  count: 1
…
